Trainset lenght: 60000
Total batch number in trainloader: 469
torch.Size([128, 1, 28, 28])
----------------------------------------------------------------
        Layer (type)               Output Shape         Param #
================================================================
            Conv2d-1           [-1, 16, 13, 13]             160
       BatchNorm2d-2           [-1, 16, 13, 13]              32
         LeakyReLU-3           [-1, 16, 13, 13]               0
            Conv2d-4             [-1, 32, 5, 5]          12,832
       BatchNorm2d-5             [-1, 32, 5, 5]              64
         LeakyReLU-6             [-1, 32, 5, 5]               0
            Conv2d-7             [-1, 64, 1, 1]          51,264
       BatchNorm2d-8             [-1, 64, 1, 1]             128
         LeakyReLU-9             [-1, 64, 1, 1]               0
          Flatten-10                   [-1, 64]               0
           Linear-11                    [-1, 1]              65
================================================================
Total params: 64,545
Trainable params: 64,545
Non-trainable params: 0
----------------------------------------------------------------
Input size (MB): 0.00
Forward/backward pass size (MB): 0.08
Params size (MB): 0.25
Estimated Total Size (MB): 0.33
----------------------------------------------------------------
----------------------------------------------------------------
        Layer (type)               Output Shape         Param #
================================================================
   ConvTranspose2d-1            [-1, 256, 3, 3]         147,712
       BatchNorm2d-2            [-1, 256, 3, 3]             512
              ReLU-3            [-1, 256, 3, 3]               0
   ConvTranspose2d-4            [-1, 128, 6, 6]         524,416
       BatchNorm2d-5            [-1, 128, 6, 6]             256
              ReLU-6            [-1, 128, 6, 6]               0
   ConvTranspose2d-7           [-1, 64, 13, 13]          73,792
       BatchNorm2d-8           [-1, 64, 13, 13]             128
              ReLU-9           [-1, 64, 13, 13]               0
  ConvTranspose2d-10            [-1, 1, 28, 28]           1,025
             Tanh-11            [-1, 1, 28, 28]               0
================================================================
Total params: 747,841
Trainable params: 747,841
Non-trainable params: 0
----------------------------------------------------------------
Input size (MB): 0.00
Forward/backward pass size (MB): 0.42
Params size (MB): 2.85
Estimated Total Size (MB): 3.27
----------------------------------------------------------------
Epochs: 1 | D_loss: 0.6834636488194659 | G_loss: 0.6930294064824769
…
